        
ID: exp9 
 infomation: G Model use bigger stride size that kernels dont overlap 
 Generator: bigger stride size such that kernel dont overlap with each other 
 Discriminator: d_tutorial 
 Learning rate: 0.002 
 Epoch number: 10 
 Batch size: 64 
 =======================

Generator(
  (model): Sequential(
    (0): ConvTranspose2d(100, 512, kernel_size=(4, 4), stride=(1, 1), bias=False)
    (1): BatchNorm2d(512, eps=1e-05, momentum=0.1, affine=True, track_running_stats=True)
    (2): ReLU(inplace)
    (3): ConvTranspose2d(512, 256, kernel_size=(2, 2), stride=(2, 2), bias=False)
    (4): BatchNorm2d(256, eps=1e-05, momentum=0.1, affine=True, track_running_stats=True)
    (5): ReLU(inplace)
    (6): ConvTranspose2d(256, 128, kernel_size=(2, 2), stride=(2, 2), bias=False)
    (7): BatchNorm2d(128, eps=1e-05, momentum=0.1, affine=True, track_running_stats=True)
    (8): ReLU(inplace)
    (9): ConvTranspose2d(128, 64, kernel_size=(2, 2), stride=(2, 2), bias=False)
    (10): BatchNorm2d(64, eps=1e-05, momentum=0.1, affine=True, track_running_stats=True)
    (11): ReLU(inplace)
    (12): ConvTranspose2d(64, 3, kernel_size=(2, 2), stride=(2, 2), bias=False)
    (13): Tanh()
  )
)
Discriminator(
  (model): Sequential(
    (0): Conv2d(3, 64, kernel_size=(4, 4), stride=(2, 2), padding=(1, 1), bias=False)
    (1): BatchNorm2d(64, eps=1e-05, momentum=0.1, affine=True, track_running_stats=True)
    (2): LeakyReLU(negative_slope=0.2, inplace)
    (3): Conv2d(64, 128, kernel_size=(4, 4), stride=(2, 2), padding=(1, 1), bias=False)
    (4): BatchNorm2d(128, eps=1e-05, momentum=0.1, affine=True, track_running_stats=True)
    (5): LeakyReLU(negative_slope=0.2, inplace)
    (6): Conv2d(128, 256, kernel_size=(4, 4), stride=(2, 2), padding=(1, 1), bias=False)
    (7): BatchNorm2d(256, eps=1e-05, momentum=0.1, affine=True, track_running_stats=True)
    (8): LeakyReLU(negative_slope=0.2, inplace)
    (9): Conv2d(256, 512, kernel_size=(4, 4), stride=(2, 2), padding=(1, 1), bias=False)
    (10): BatchNorm2d(512, eps=1e-05, momentum=0.1, affine=True, track_running_stats=True)
    (11): LeakyReLU(negative_slope=0.2, inplace)
    (12): Conv2d(512, 1, kernel_size=(4, 4), stride=(1, 1), bias=False)
    (13): Sigmoid()
  )
)
 Epoch  0 Step 100 | G loss : 0.019814418628811836 | D loss (real) :  0.044656503945589066 | D loss (fake) :  0.0005331966676749289
 Epoch  0 Step 200 | G loss : 0.04811655357480049 | D loss (real) :  0.003800943959504366 | D loss (fake) :  0.005498527083545923
 Epoch  0 Step 300 | G loss : 0.07413221895694733 | D loss (real) :  0.000735664099920541 | D loss (fake) :  0.0008906549774110317
…
